content/pretrained_models/traffic_sign_classifier_lenet_v1.onnx (onnx, 248771 bytes, 10 tensors)

conv_1.weight f4 [6, 3, 5, 5]
000000 d3 9e 1d c0 4a d6 92 bf 37 6c a3 be ba 58 0f be
       -2.4628189 -1.1471646 -0.319185 -0.1399869
000010 f3 27 d2 bb 09 65 12 c0 4d 7d 1c bf e7 85 8c 3c
       -0.0064134537 -2.2874167 -0.61128694 0.017153693
000020 08 58 d7 3e 89 16 87 3e c7 9a df bf c2 8d cc be
       0.4205935 0.2638438 -1.7469109 -0.39951903
000030 a1 e0 06 3f 0c 0c 4f 3f 2d 32 1c 3f b1 6f bc bf
       0.52686507 0.8087776 0.6101406 -1.4721586
000040 cf 05 95 be 89 a3 32 3f 9d 96 57 3f 72 ce aa 3e
       -0.29105994 0.69780785 0.8421419 0.3336063
000050 3c c7 9b bf f8 69 77 be f2 5c f5 3e a4 15 ec 3e
       -1.2170177 -0.24161518 0.47922474 0.4611026
000060 ef f7 0a be 1e 7a e1 bf 21 a0 23 bf 61 59 4c 3e
       -0.13571142 -1.7615392 -0.6391621 0.1995597
000070 d1 65 78 3e 2d 6c 3b 3e 6a 13 b4 bf 0f d3 83 be
       0.2425759 0.18302985 -1.4068425 -0.25746962
000080 22 36 0a 3f 67 15 55 3f 8e 5a 5d 3e 9f 51 4e bf
       0.5398885 0.8323578 0.21616575 -0.80593294
000090 1d 57 ae 3d bd ab 86 3f ef 79 a4 3f aa de 29 3f
       0.08512709 1.052116 1.2849711 0.66355383
0000a0 7c 9d 3c bf 1c 7f dc 3e 22 d2 59 3f e6 a3 9a 3f
       -0.736778 0.43065727 0.8508626 1.2081268
0000b0 34 7e d6 3e 8f 02 a9 be 72 68 c5 3e 3c 31 58 3f
       0.4189316 -0.33009765 0.38556248 0.84450126
0000c0 31 d9 14 3f ee 2a b3 bc 94 cd fb bf 1d d6 70 bf
       0.5814391 -0.021871056 -1.9672112 -0.9407671
0000d0 9d 36 8c 3d c3 e0 47 3e 29 49 86 3c 44 bf c0 bf
       0.06846354 0.19519334 0.016392307 -1.505837
0000e0 28 64 c1 be 58 7f 36 3f b9 e4 16 3f 6c 3b ad 3e
       -0.37771726 0.7128806 0.58942753 0.33834398
0000f0 3e ed 37 bf d5 b3 f3 3e d4 71 b0 3f c8 b8 b0 3f
       -0.7184638 0.47598138 1.3784738 1.3806391
000100 0a 1c 26 3f 96 69 df be 75 e8 38 3f 82 f3 be 3f
       0.64886534 -0.43635243 0.722297 1.4918063
000110 36 95 a8 3f 92 fd 1a 3f c2 ff c0 bd d4 6a 58 3f
       1.3170536 0.6054317 -0.09423782 0.84538007
000120 5d 7b b0 3f 8b 8c 8c 3f 2f a3 d4 3d f0 fe fd 3e
       1.3787647 1.098039 0.10382687 0.49608564
000130 90 14 00 be 1b 06 8c bf 74 32 ea bf 30 72 08 c0
       -0.12507844 -1.0939363 -1.8296647 -2.1319695
000140 b8 78 fc 3c b8 6a 57 bf 0d 05 b5 bf 15 01 05 c0
       0.030819282 -0.84147215 -1.4142166 -2.078191
000150 0a e7 01 c0 a0 55 a8 be 13 75 78 bf 30 83 d5 bf
       -2.0297265 -0.32877827 -0.9705364 -1.668066
000160 a1 55 fd bf 98 c2 fe bf df 88 a4 be 52 17 57 bf
       -1.9791757 -1.9903135 -0.32135674 -0.8401996
000170 18 a2 d8 bf ad 22 02 c0 79 d4 00 c0 87 f2 c1 be
       -1.6924467 -2.0333664 -2.0129683 -0.37880346
000180 ab 67 20 bf df ee bd bf c8 77 e6 bf c3 d1 db bf
       -0.62658185 -1.4838523 -1.8005304 -1.7173389
000190 92 97 ea 3f 18 86 c2 3f e5 d6 55 3f 6a 89 3e 3e
       1.8327506 1.5197172 0.8353103 0.18607107
0001a0 74 c4 9d bd 95 0e c2 3f 91 f0 80 3f 98 a0 ee 3e
       -0.07703486 1.51607 1.0073415 0.46606898
0001b0 8f e5 bc 3c c1 34 96 3d 39 8a c5 3f 2e 93 7e 3f
       0.02305868 0.07334281 1.5432807 0.9944333
0001c0 af 74 07 3f c7 59 b0 3d 7e 4c 18 3e 55 6b a9 3f
       0.5291242 0.08610874 0.1487293 1.323588
0001d0 30 39 91 3f 7f 9f 0d 3f 31 92 5d 3e e6 08 92 3e
       1.1345577 0.55321497 0.21637799 0.28522414
0001e0 55 f3 b1 3f c9 05 8f 3f 00 4f 40 3f ff 3a fc 3e
       1.3902384 1.117364 0.75120544 0.4926376
0001f0 c4 6a f4 3e 49 54 6d 3f 7d 17 81 3f bb 5c 0f 3f
       0.47737706 0.92706734 1.0085293 0.5600087
000200 19 9f 46 bd 7c 6a 5e be 41 57 71 3f 2f 92 30 3f
       -0.04849157 -0.21720308 0.94273764 0.6897306
000210 ae 6d cd 3e fb f0 e3 3d 70 2d 02 3e b8 5b 8b 3f
       0.4012274 0.11129948 0.12712646 1.0887365
000220 66 cf 67 3f 54 16 23 3f 68 06 c7 3e 88 77 8c 3e
       0.9055084 0.63705945 0.38872075 0.27434945
000230 9e 03 92 3f 41 c8 8c 3f 88 c7 34 3f 9b a2 c9 3e
       1.1407354 1.0998613 0.7061696 0.3938187
000240 6e e3 16 3e f3 cf 73 3f 0c f3 74 3f cd 16 68 3f
       0.14735195 0.9523918 0.9568336 0.9065979
000250 55 1b 15 3f 49 b0 81 3e a4 94 88 3e e7 29 22 3f
       0.5824483 0.25329807 0.26675904 0.6334519
000260 6b 76 4a 3e ab 75 0a bf 47 3f b3 bf 60 d0 28 3f
       0.19771735 -0.540858 -1.4003686 0.65942955
000270 8e 38 7a 3f 36 65 f9 3e 7f 46 fd be 6d 73 97 bf
       0.97742546 0.4871003 -0.49467847 -1.18321
000280 2f 20 2d 3f 0e 05 a0 3f 69 1f 24 3f 27 bd 98 be
       0.67627233 1.2501543 0.6411043 -0.29831812
000290 b8 d1 91 bf 20 88 ea 3e 4c b2 63 3f ab 03 1b 3f
       -1.1392126 0.4580698 0.88943934 0.6055247
0002a0 22 c9 ab be bc 87 a9 bf 90 a8 c6 3c 5d 0d 94 3e
       -0.3355189 -1.3244548 0.024250299 0.28916445
0002b0 51 4a b4 3b ea 6e 49 bf 6e f8 e0 bf aa 6e a3 3f
       0.0055020233 -0.78684866 -1.7575815 1.2768147
0002c0 9c cd d4 3f 07 a4 aa 3f 9e 52 0e 3f 37 84 07 3d
       1.6625247 1.3331307 0.55594814 0.033085074
0002d0 38 0f d2 3f 96 bd fe 3f a2 be b8 3f dd c7 47 3f
       1.6410894 1.9901607 1.4433177 0.7803934
0002e0 33 1b 29 3d 21 4b e8 3f 4e 1e 1c 40 91 df e3 3f
       0.041285705 1.8147928 2.4393497 1.7802602
0002f0 75 62 5d 3f d5 6b 1f 3e 46 eb fc 3f 67 10 1a 40
       0.8647836 0.15568478 1.97593 2.4072511
000300 f8 ec dd 3f 66 2e 5c 3f 83 5a 84 3e 78 22 e7 3f
       1.7337942 0.860083 0.25850305 1.8057394
000310 8b e5 fd 3f 1a 9f b9 3f 1e 62 2b 3f bb 07 88 bd
       1.9835676 1.4501679 0.6694659 -0.066420995
000320 4b f7 32 be c1 f9 4e 3d e3 1d eb be b8 6e 93 bf
       -0.17477147 0.050531153 -0.4592124 -1.1518164
000330 93 17 e0 bf da d2 19 3e fe ff 87 3e f6 d4 de bd
       -1.7507194 0.1502184 0.26562494 -0.10880463
000340 e5 c3 72 bf 4b 09 cf bf 3e 40 31 3f 26 d0 70 3f
       -0.9483016 -1.6174711 0.6923865 0.9406761
000350 75 70 90 3e aa 73 19 bf bc fb bb bf fc 36 5f 3f
       0.28210798 -0.59942114 -1.4686198 0.87193274
000360 ff 15 55 3f 7b eb c9 3e b7 93 04 bf a0 98 9d bf
       0.8323669 0.3943747 -0.51787895 -1.2312202
000370 37 cc 4f 3f 7a 09 4b 3f 49 05 21 3e 7d c2 1e bf
       0.8117098 0.79311335 0.15724672 -0.62015516
000380 41 8f b7 bf 7d a5 27 be 1d 80 86 3e 12 a9 56 3f
       -1.4340593 -0.16371723 0.26269618 0.8385173
000390 85 fe 94 3f 68 fb 86 3f a7 10 06 3e 12 0e 19 3f
       1.1640173 1.0545473 0.1309229 0.59787095
0003a0 b1 28 72 3f ab 13 61 3f c6 7c 4d 3f 05 3f c5 3e
       0.9459334 0.87920636 0.80268514 0.38524643
0003b0 6d fd 51 3f a6 ba 74 3f b4 8c 51 3f b6 6c c3 3e
       0.8202732 0.955973 0.8185532 0.38168877
0003c0 af fb 5f 3e 5f f0 2a 3f 07 40 57 3f 14 57 01 3f
       0.21873353 0.6677303 0.8408207 0.50523496
0003d0 56 ad ad be 76 7f d6 bd fa 0b 4b 3e 18 8b dd 3e
       -0.33921307 -0.1047353 0.19828787 0.43270183
0003e0 fd 84 ab bc 68 24 32 bf ce 7f 9b bf 40 d5 56 bf
       -0.020937437 -0.695868 -1.2148378 -0.83919144
0003f0 26 34 84 be ca 1f 3f 3c 99 0b 83 bb e8 8d 3b bf
       -0.25821036 0.011665294 -0.0039991853 -0.73263407

conv_1.bias f4 [6]
000000 20 fe 4a 3f 2d b2 27 bf d5 d7 fd bd 6d 6a 8e bf
       0.79294014 -0.6550625 -0.12394682 -1.1126229
000010 df 35 11 bf f1 0a 86 be
       -0.56722826 -0.26180223

conv_2.weight f4 [16, 6, 5, 5]
000000 21 b5 a0 3e e3 a2 5a 3c 20 43 2f 3a ec cb 0d bd
       0.3138819 0.013344499 0.00066857226 -0.034618303
000010 f8 ad 45 bd d5 c7 b7 3d 2b 22 e6 bd cd c1 69 be
       -0.048261613 0.08973662 -0.11236986 -0.22827835
000020 55 81 2f be 2b 95 91 bd 49 62 6d bd a8 54 a7 be
       -0.1713918 -0.0710853 -0.05795506 -0.32681775
000030 c4 66 96 be a1 a8 36 bd f1 76 d7 3d 79 56 11 be
       -0.2937528 -0.04459441 0.10520733 -0.14193143
000040 f3 26 33 be 58 e3 89 be 3f 60 b2 3d 24 2b 2b 3e
       -0.17495327 -0.26931262 0.08709764 0.16715676
000050 46 7c 41 be 8c 39 ca bd 3b af b4 bd 1f 47 5b 3d
       -0.18895063 -0.098742574 -0.08822485 0.053534623
000060 61 bb 7f bd 96 6e b4 be 68 c6 89 be 8c c8 83 be
       -0.062434558 -0.3524062 -0.26909184 -0.25738943
000070 d0 0e 4d 3c a7 4a 63 3d 81 9e d3 be 1f d5 eb be
       0.012515739 0.055491116 -0.41331866 -0.46061036
000080 58 f8 e7 be 5d 15 48 be 27 30 23 be 27 96 b2 be
       -0.4530666 -0.195394 -0.15936337 -0.34880182
000090 74 0b e6 be c3 b5 de be 0b 88 d3 be cd 1f 54 be
       -0.44930613 -0.43498048 -0.4131473 -0.20715256
0000a0 63 a0 d2 be 7d e9 0c bf e9 92 e8 be a5 1c e4 be
       -0.4113799 -0.55043775 -0.45424584 -0.44553104
0000b0 52 d1 0b be 87 bf 89 be 12 1d dd be 14 b1 c9 be
       -0.13654068 -0.26903936 -0.4318624 -0.39392912
0000c0 e1 de c1 be f1 4f 77 bd b7 ee 49 3e e0 e9 4b 3e
       -0.37865356 -0.060378972 0.19719969 0.19913435
0000d0 38 be 87 3d b8 fe 10 3d 48 ef 45 3d 9b d8 11 3e
       0.06628078 0.03539917 0.0483239 0.14242785
0000e0 e7 84 0a be a0 e5 92 bd ee 3f d2 bc d8 d8 32 bd
       -0.1352726 -0.07172704 -0.02566525 -0.04366383
0000f0 41 17 7c 3b 83 da aa be 0b 12 be be 6e a1 6a be
       0.003846601 -0.33369836 -0.3712314 -0.22913143
000100 00 8e 0a bc 29 82 04 3d 9a 99 8c be 8c 8e bb be
       -0.008456707 0.032350693 -0.2746094 -0.36632192
000110 aa c6 31 be 45 c0 9f 3c 2b 05 37 bd c9 f3 09 be
       -0.1736094 0.019500861 -0.044682663 -0.13471903
000120 a6 3d 62 be 17 d5 19 be 7a 19 11 3d d6 aa ef 3e
       -0.2209383 -0.15022694 0.035424687 0.46810025
000130 49 95 ae 3e 72 85 4e 3e 3e c8 f5 3d ee 0e 19 bd
       0.3409827 0.20168093 0.12001084 -0.037367754
000140 2b 36 7e 3e 00 64 18 3e b0 3c 3a 3e be c8 04 3e
       0.24825351 0.14881897 0.18187213 0.12967202
000150 d7 da 26 3e 25 8d 3e 3e 44 cf de 3d c5 ca 1f 3e
       0.16294418 0.1860853 0.108793765 0.15604694
000160 2f 4e 7d 3e 35 54 ba 3e af a3 01 bc 56 fa c2 bd
       0.24736856 0.3639237 -0.00791256 -0.09520404
000170 da 55 e9 3b 33 51 58 3e 09 b1 d9 3e 58 29 f8 bd
       0.00712083 0.21124725 0.4251788 -0.12117261
000180 0d 0c b4 bd 38 81 4e 3d 7c 43 89 3e 1b 2d 97 3e
       -0.08791361 0.0504162 0.268093 0.295266
000190 91 cb e0 be 9f c1 80 be d5 b2 1a be 93 c0 3a be
       -0.4390531 -0.2514772 -0.15107282 -0.18237524
0001a0 25 e3 c8 be 54 8f c9 be 7b bc cf be 4d 23 e6 be
       -0.39235798 -0.39367163 -0.40573487 -0.44948807
0001b0 90 53 f5 be 43 97 d1 be 6f 47 29 bf ba 20 1c bf
       -0.47915316 -0.40935716 -0.66124624 -0.60987437
0001c0 2b 1d 11 bf 85 88 12 bf 76 e9 c3 be 8f ad 0f bf
       -0.5668513 -0.5723956 -0.38264054 -0.56124204
0001d0 ac 3b 1f bf 4f e1 21 bf c2 cc 02 bf 28 be 1b be
       -0.6220043 -0.6323442 -0.51093686 -0.15209258
0001e0 c0 0d fc be c6 6b 21 bf 49 a6 0e bf d7 a8 8b be
       -0.4922924 -0.63055074 -0.5572248 -0.27277252
0001f0 13 29 34 be a4 99 b1 3e 61 0f 1e 3e 11 22 f9 3d
       -0.17593794 0.3468753 0.15435554 0.12164701
000200 b4 59 32 3d 61 31 28 be 39 e2 da bb 70 73 74 bd
       0.04354258 -0.16425087 -0.0066798 -0.059680402
000210 af 63 20 be f9 27 4b bd 31 0c c3 bc c7 4e 48 be
       -0.15663026 -0.049598668 -0.023809524 -0.19561301
000220 c3 70 bf be 0b 51 ad be a2 bf 6c be 3c 53 e0 3d
       -0.37390718 -0.33850893 -0.23119977 0.10953376
000230 e4 45 c2 be 3c 17 c2 be ab 68 d3 be 92 bd 8b bd
       -0.37943947 -0.3790835 -0.41290793 -0.06823267
000240 2c 60 44 3e a0 62 6d be 03 04 a9 be 44 c7 a0 be
       0.19177312 -0.23182154 -0.33010873 -0.31402028
000250 cc f6 d5 bd cc 86 16 3e f0 85 48 bf 25 36 1d bf
       -0.104474634 0.14699858 -0.7832937 -0.61410743
000260 63 6a 5f be 64 24 7a 3e 0e 07 f4 3e f1 85 32 bf
       -0.21817927 0.24427944 0.47661632 -0.6973563
000270 54 89 56 be 8f 36 55 3e f6 2c a9 3e ec d4 7e 3e
       -0.20950824 0.20821594 0.33042115 0.24885911
000280 3d 47 d2 be 69 dc cb 3d 94 83 85 3e 1f 05 ae 3d
       -0.41069975 0.09954149 0.2607695 0.084970705
000290 47 52 23 be cf a6 26 bf f5 56 1f be ea 20 25 be
       -0.15949355 -0.6509828 -0.15560515 -0.16125837
0002a0 dd 03 b2 be b7 9d 2f be 2a 05 47 bf 92 65 18 bf
       -0.34768572 -0.17150007 -0.77742255 -0.59529984
0002b0 59 93 14 bf 51 98 f6 be ac 67 6d be 2c 5f 83 be
       -0.58037335 -0.48163083 -0.23184079 -0.25658548
0002c0 b4 b6 52 be 21 f3 da bd 5e 8c 70 bd 00 39 8a 3e
       -0.20577508 -0.106909044 -0.058727615 0.26996613
0002d0 a0 05 8a 3d 2c 9c 4d 3e 52 9e 01 3f c5 cb 36 3f
       0.06739354 0.20079106 0.506322 0.7140468
0002e0 5e 52 57 3f 36 4e 4a 3e 10 59 07 3f 86 1a 82 3f
       0.8411006 0.19756398 0.52870274 1.0164344
0002f0 5b c5 78 3f c7 e9 3a 3f 4e 26 dc 3e 05 3a 60 3f
       0.9717614 0.73012966 0.42997974 0.8758853
000300 d7 aa 6e 3f d9 6d 34 3f 7f 7d 54 3e 1d 8d 18 3f
       0.9322943 0.70480114 0.20750998 0.5959032
000310 68 09 3f 3f c6 f7 11 3f 9d a9 b3 3d e9 b3 62 be
       0.7462373 0.570187 0.087725855 -0.22138943
000320 3b ec b7 3e d0 f0 e5 3c b6 ea 22 3e 03 1d 9f 3e
       0.35922417 0.02806893 0.15909848 0.31076822
000330 e0 5b b9 3e 58 9c c9 3d b6 28 b9 3d 6d b7 4b 3e
       0.36202908 0.09844273 0.09040968 0.1989419
000340 75 b3 dd 3e bc 4f cd 3e 07 fe 0b be 4e 27 9e bd
       0.43300977 0.40099895 -0.13671122 -0.077223405
000350 7d c7 a8 3e c3 55 20 3f 07 71 a5 3e 8a 63 bb be
       0.32964697 0.6263086 0.32312796 -0.3659938
000360 19 2f 9a be 2a 98 08 3e 6b d7 2b 3e 21 06 23 bd
       -0.30114058 0.13339296 0.16781394 -0.039800767
000370 3b e9 94 be 8c 1f 12 bf 7e 57 a3 be 96 47 b9 be
       -0.2908419 -0.57079387 -0.3190269 -0.36187428
000380 0e 2c b9 be 8b cd dd be ee 38 06 bf 19 49 f4 be
       -0.36166424 -0.4332088 -0.5243062 -0.4771202
000390 56 bc ed be 97 7c 8d be 05 2a 2f bf c7 2c 37 bf
       -0.4643275 -0.27634117 -0.6842349 -0.715527
0003a0 eb ae 1c bf 95 47 1c bf 62 1a 09 bf 90 5c 3b bf
       -0.61204404 -0.61046726 -0.5355588 -0.73188114
0003b0 5e 5f 20 bf fd d3 fd be 60 8b 2b bf 84 6f 2d bf
       -0.6264552 -0.49575797 -0.67009544 -0.67748284
0003c0 4b f5 68 bf 1a f1 7a bf 9b 25 40 bf d0 31 35 bf
       -0.9099929 -0.9802414 -0.7505738 -0.7077913
0003d0 46 43 16 bf 15 51 91 bf 87 a5 98 bf 5a b8 92 bf
       -0.586964 -1.1352869 -1.1925515 -1.146251
0003e0 d8 9b 85 bf b9 ee 05 bf 01 55 f4 be 16 c6 14 bf
       -1.0438185 -0.52317387 -0.47721103 -0.58114755
0003f0 52 21 bf be f2 9e ce bd 04 55 a0 3e b9 0d b4 be
       -0.3733011 -0.1008891 0.31314862 -0.3516672

conv_2.bias f4 [16]
000000 94 a6 8e 3e 60 14 c0 3e 10 b9 2f 3e e3 50 7a be
       0.27861464 0.37515545 0.1716044 -0.24444918
000010 11 fe bc be b8 24 27 bf d4 c5 85 3d 11 79 34 3e
       -0.36912587 -0.65290403 0.06531873 0.17624308
000020 07 e2 01 bc 84 05 16 be 37 09 82 3e 6e bc 85 3f
       -0.007927424 -0.14650542 0.25397655 1.0448129
000030 50 bf 8a be a9 c2 ba bd df 76 20 3f de bd 69 bf
       -0.27099085 -0.0911916 0.6268138 -0.9130534

fc_1.weight f4 [120, 400]
000000 26 98 94 bd b7 1c 85 bd 95 5e 87 3d a4 c4 f3 3c
       -0.072555825 -0.064996175 0.06609837 0.029756851
000010 f6 c6 ca bc 92 e5 af bd 7f 7f dd 3c 89 8b dd 3d
       -0.024753075 -0.08588709 0.027038334 0.1081763
000020 68 0f d4 3c ce c0 98 3c 7f 32 a1 bd 6a d6 02 3e
       0.025886253 0.018646624 -0.078709595 0.12777105
000030 e4 79 26 3d 0f a5 89 3d f1 94 6b 3d 21 bb 02 be
       0.040643588 0.067209356 0.05751509 -0.12766697
000040 68 ad 07 3e 3a a0 c7 3d 7d 4f a1 3d 3e 32 e2 3d
       0.13249743 0.09747358 0.07876489 0.11044739
000050 7f 9d e7 bd 6e a4 28 3d 98 56 de 3d c3 7d 2a 3d
       -0.11309337 0.041172437 0.1085636 0.041623842
000060 8d a4 82 bd fb 4d 2e 3c 22 31 f6 bc 76 1c 42 3c
       -0.06379042 0.010638709 -0.030052725 0.011847606
000070 1c 02 9b bd ce 42 83 bd 59 73 88 3d da 36 a0 bc
       -0.07568762 -0.06409226 0.06662626 -0.019557405
000080 6b 8e 2b be d8 b0 db bd 8a 85 55 bc 23 29 3b bc
       -0.16753547 -0.1072709 -0.0130323265 -0.011423382
000090 30 23 1b be 1c c5 23 be 64 77 96 bd 76 6d 12 be
       -0.15150142 -0.1599316 -0.07346991 -0.14299569
0000a0 9c 97 ad b9 93 e8 1b 3c 2e dc 0a bd c6 ee 92 bd
       -0.0003311009 0.009515899 -0.033901386 -0.07174449
0000b0 38 5d a5 bd 85 5a 85 3d 35 f7 18 bd e5 b6 2f be
       -0.08074421 0.06511406 -0.03734513 -0.17159612
0000c0 c8 b8 25 be 2a 9a 32 bd ae a1 ca 3c a6 f1 95 bd
       -0.1618377 -0.043604054 0.024735298 -0.073214814
0000d0 ce 3e 55 bd 6d e8 32 bd 1c ce b4 bd f0 ea 5d bd
       -0.05206185 -0.04367869 -0.08828375 -0.054179132
0000e0 28 27 9a bd 86 9a 31 bc a4 68 14 3d 9c 00 6d 3d
       -0.07527 -0.010840064 0.036232606 0.05786191
0000f0 bb 19 ca bd 94 85 95 3d 71 3c 08 3d af c3 6c 3d
       -0.09868189 0.07300869 0.033260766 0.057803806
000100 19 dd ce 3d 79 07 04 be 69 7e 3f bb 01 41 3d 3d
       0.10100765 -0.12893476 -0.0029219633 0.04620457
000110 95 5e 8f 3d a0 6b c2 bc 00 ae 19 be d1 71 ce bc
       0.07000462 -0.02373296 -0.15007782 -0.025200756
000120 1c ce d6 3c b4 3a c6 3d c1 88 cc bd ad 1f 56 3c
       0.026221327 0.096791655 -0.09987021 0.0130690755
000130 0b 87 24 3b eb 1c 32 be 77 d9 eb bd db 8b 82 ba
       0.0025104906 -0.17393844 -0.115160875 -0.0009959893
000140 a1 31 ba 3c f1 38 54 3d ae 48 01 be e5 bd 82 bd
       0.022728743 0.051812116 -0.12625381 -0.06383876
000150 b5 07 8b bd 98 58 fb 3d d2 a5 44 3e fe 68 a2 3d
       -0.067885794 0.12272757 0.1920388 0.07930182
000160 2b 80 2f 3e b7 b9 aa bc be b0 6b 3e c5 80 27 3e
       0.17138736 -0.020840509 0.2301664 0.16357715
000170 64 77 0f bd 6e 09 c8 bc dc 8d 95 bd 85 7b cc 3d
       -0.03502597 -0.024418559 -0.07302448 0.09984497
000180 99 05 e2 3d 21 4a 92 bd 06 6a 33 be a5 cf d5 bd
       0.11036224 -0.07143045 -0.17520913 -0.10439996
000190 6c 8e 96 bd 3a 3b 4d 3d 29 09 a4 3d 67 3e 89 3c
       -0.073513836 0.05010531 0.0800956 0.016753389
0001a0 f6 35 9d bd 4f 8c 43 bc 23 84 f3 3c 30 93 1c 3d
       -0.07676308 -0.011935308 0.029726094 0.038226306
0001b0 5a 0b 92 3d 65 be f9 bb 69 a1 fa bb f4 de 8a 3d
       0.071310714 -0.0076215737 -0.007648636 0.06780806
0001c0 db e0 aa 3d 3a 8a 05 3e 46 dc 07 3e b7 f3 b6 bc
       0.08343669 0.1304101 0.13267621 -0.02233301
0001d0 0b c7 14 3e ce c5 2e 3e 3f 4b 05 3e dc 69 91 3d
       0.14529054 0.17067644 0.13016985 0.07100269
0001e0 cb a2 be bd c2 46 8e 3d 9b 0d 12 3e 4a 00 9e 3d
       -0.09308394 0.0694709 0.14263003 0.07714899
0001f0 64 c2 49 bd 78 e1 31 3d 1e 38 f8 3c d0 71 ee bd
       -0.04925765 0.043427914 0.030300196 -0.11642802
000200 5b ff 71 bd cb ce c4 bd fa dc 23 3d 34 85 4b 3d
       -0.059081417 -0.09609755 0.04000566 0.04968758
000210 5f 5e ed bd 57 69 a4 bd 14 9f a2 bd b0 67 d7 3d
       -0.115902655 -0.080279045 -0.07940498 0.10517824
000220 75 8f 7f 3d 4b 05 2b 3d 73 cf b5 3d 40 86 04 bc
       0.06239267 0.041753095 0.088774584 -0.008088648
000230 63 fb 21 3e 56 59 eb 3d ea 88 d2 bc cd 58 9c 3d
       0.15818553 0.11491649 -0.025700051 0.07634125
000240 17 13 89 3c 51 da aa 3d c2 b6 40 3d 15 49 b3 bd
       0.016732736 0.08342422 0.04704929 -0.08754174
000250 b2 bc da bd 9e b0 9c bb a3 cb 91 bd 59 fb b7 3c
       -0.10680522 -0.0047817966 -0.07118919 0.02245872
000260 b4 ee 3c bd ec 41 b0 bd a7 05 d8 bd 92 d4 8f bb
       -0.046126083 -0.086063236 -0.10547953 -0.004389354
000270 4a fe 40 bd 95 39 83 bd e0 52 0b be 4f 35 dc bd
       -0.04711751 -0.06407467 -0.13605833 -0.10752355
000280 0c 24 1c bd ed 56 6e 3d 02 62 a7 3c fa b2 31 bd
       -0.038120314 0.058188368 0.020432476 -0.043383576
000290 fb a9 bc bc 65 68 6a bd 50 30 96 bc 04 a2 6a 3d
       -0.023030272 -0.057228465 -0.018333584 0.057283416
0002a0 c1 8e 93 38 70 cb e8 bc 94 1c 11 be d0 14 13 be
       7.036096e-05 -0.028417319 -0.14171058 -0.14363408
0002b0 7f 6d e6 bd 97 bf b2 bd 18 ac 2a be 8a 0a b9 bb
       -0.112513535 -0.08727949 -0.16667211 -0.0056470083
0002c0 22 e0 23 bd 45 32 43 be 11 33 02 be d6 1c e0 bd
       -0.04000867 -0.19062145 -0.12714793 -0.10943
0002d0 e2 c6 90 3d 6d 1b 0d bb 5f 1d 36 be 15 db 21 be
       0.07069184 -0.002153124 -0.17784642 -0.1580623
0002e0 d0 63 32 be 36 7d cc 3c 2f e4 e6 3d 2c c1 44 3d
       -0.17420888 0.024962049 0.11273991 0.048035786
0002f0 8b 35 92 3d ff 11 82 bd 9a 50 9b 3d 73 27 37 3e
       0.07139119 -0.06351089 0.07583733 0.17886142
000300 59 db c0 3d 33 21 b8 bc 0c 4d b1 3c 06 67 25 3c
       0.09416837 -0.022476768 0.021643184 0.0100953635
000310 05 96 9a 3b 2f a5 ef bd df ff 1f be 1b 2f d3 bd
       0.0047175908 -0.11701428 -0.15624951 -0.10311719
000320 68 b2 1f be f9 aa 94 bd a5 5a 44 be b1 84 91 bd
       -0.155954 -0.07259173 -0.19175203 -0.07105387
000330 86 3d 34 bd 39 db 53 bc 50 03 85 3c 13 c6 64 be
       -0.044003986 -0.012930685 0.016236931 -0.22341184
000340 bc 65 e8 bd 0e 7f d2 bd d4 e1 12 bc f4 ac 87 3c
       -0.11347529 -0.1027814 -0.008964974 0.016561963
000350 4f 99 00 bb 2b 54 00 bc 3e 99 05 be 2f 42 40 3c
       -0.001962263 -0.007832567 -0.13046739 0.011734529
000360 8c 08 b2 3c 78 15 fb 3d a5 e1 a2 bb 7e 1c c2 bd
       0.021732591 0.12259954 -0.0049707466 -0.09478091
000370 45 61 cc 3c e6 63 81 bd 92 1c bf bd b6 3e 12 be
       0.024948725 -0.06317882 -0.09331621 -0.14281735
000380 0e ad 6f bd f6 47 a1 3c 80 d7 95 3c d5 b6 c4 bb
       -0.058514647 0.019687634 0.018291235 -0.0060032406
000390 f6 61 20 3d 79 9d ab bc 08 0d f9 bd eb eb ac bc
       0.039155923 -0.020949112 -0.12160689 -0.021108588
0003a0 a9 98 02 3c d2 5a 2f 3d 6a 64 0f 3d ac af bb bd
       0.007970967 0.042811222 0.03500787 -0.09164366
0003b0 6a 8f f7 3c d0 95 40 3d 3e e1 6a 3d e4 2d 68 3d
       0.030219752 0.047017872 0.057343714 0.05668439
0003c0 99 10 8a bd 47 2f e7 3c 9c 34 79 3d 6f 19 53 3d
       -0.06741447 0.028220786 0.060841188 0.051537927
0003d0 dd ba 58 3d 3d 76 11 be 96 cc 9a 3b 7a f7 67 bc
       0.05291258 -0.1420526 0.0047240956 -0.014158124
0003e0 be 7c 6f 3d 6d 38 5f bd b5 72 ca bd cf 3e e7 bc
       0.058468573 -0.05449717 -0.0988516 -0.028228192
0003f0 fe 02 be 3c b7 4e a3 3d 18 45 ca bd c1 3f 8e bd
       0.023194786 0.07973998 -0.0987646 -0.06945754

fc_1.bias f4 [120]
000000 ae 00 14 be cb 31 22 bd d2 12 7d bd 55 31 c2 bd
       -0.14453384 -0.039598268 -0.061785527 -0.094820656
000010 d8 58 14 be b3 55 75 be 74 22 bd bd ff 47 d2 bd
       -0.14487016 -0.23958473 -0.09235087 -0.102676384
000020 66 a8 b6 3c 9c b6 e3 bd 66 67 ee bd bc e8 cb bd
       0.022297096 -0.11118814 -0.116408154 -0.099565
000030 9a 4f 8e be 19 76 ef bd 38 cf 13 be 12 5e d7 bd
       -0.27795106 -0.11692447 -0.14434516 -0.10515989
000040 78 db 1d be 41 a4 f9 bd fe f5 01 be ec 4c 14 be
       -0.15415752 -0.12189532 -0.12691495 -0.14482468
000050 ad 6a f1 bd b9 e7 09 be 68 7b 2a be dc 18 a6 bd
       -0.11787925 -0.13467301 -0.16648638 -0.0811021
000060 b1 3c 6c be ce 4d 30 bd 4c 4f 06 be 77 2e e1 bd
       -0.23070027 -0.04304295 -0.13116187 -0.109951906
000070 91 14 35 be 15 c5 4b be 65 05 92 bd 35 f1 50 bd
       -0.17683627 -0.198994 -0.07129935 -0.051011283
000080 6f 1c ec bd fc 02 ac bd 72 df 3c 3d c3 b4 6d 3d
       -0.11528861 -0.08399007 0.04611153 0.058033716
000090 57 c4 3d be 03 37 28 be 4f 36 19 bd b3 83 45 be
       -0.18531929 -0.16427235 -0.03740531 -0.1928852
0000a0 c2 f3 30 be 2a 91 e1 bc b5 8e de bd 27 ed 09 be
       -0.17280486 -0.02753504 -0.10867063 -0.13469373
0000b0 2e f6 83 bb 47 2c f8 3d 8c da 8a be 94 44 c4 bd
       -0.0040271496 0.1211782 -0.27119863 -0.09583393
0000c0 8d 11 a2 bd 3a 98 70 be 0f 03 29 be 9a 69 49 be
       -0.07913504 -0.2349557 -0.16505073 -0.1966919
0000d0 a5 c9 10 bd ab ae 11 bd 63 ad f0 bd cf 6b a1 bd
       -0.035348553 -0.035566967 -0.11751821 -0.07881891
0000e0 13 ff ac 39 bd 2b 65 bb 89 c1 b4 3b da e2 3d be
       0.00032996442 -0.0034968697 0.0055162353 -0.18543568
0000f0 90 ff 93 3c 1a 79 f6 bd 41 6d 07 be 1a f2 81 3e
       0.018066198 -0.12034817 -0.13225271 0.2538002
000100 17 f9 fc bd 6b 68 7c bd a7 88 14 be 52 ad 92 be
       -0.123521976 -0.06162302 -0.14505254 -0.28647858
000110 c9 2d e8 bd 92 f7 16 be 68 43 d9 bd f2 f5 3d be
       -0.11336858 -0.14742878 -0.1060856 -0.18550852
000120 d7 a6 0e be b5 b3 9f bd b8 ce 78 bd 7b 41 4e be
       -0.13930832 -0.07797948 -0.060744017 -0.20142166
000130 88 4f c1 bd 8b 17 e3 bd 1a 39 02 be 38 af 3e be
       -0.094389975 -0.11088475 -0.12717095 -0.18621528
000140 a4 6c 54 3d 6c 02 14 bd 28 0c 3a be 77 4b 2c be
       0.05186142 -0.036135122 -0.181687 -0.16825663
000150 43 74 32 be 46 e1 8c 3d f4 7e 12 be a3 12 be 3c
       -0.17427163 0.06878905 -0.14306241 0.023202246
000160 a4 92 a6 3d 98 9c 4f be d0 f2 0c be dd 3a 2c be
       0.08133438 -0.2027458 -0.137645 -0.1681933
000170 da 9e 47 3c ec 0e 12 be 2d 26 f8 be 2b 30 01 be
       0.012183869 -0.14263505 -0.48466626 -0.12616031
000180 73 fb e0 bd 7b 57 e2 bd c9 5e 75 be 28 8b 0f be
       -0.1098546 -0.11051842 -0.23961939 -0.14017928
000190 dc f3 0a be db 1b 47 be 80 4b e1 3d 24 5f a4 3c
       -0.13569587 -0.1944422 0.110007286 0.020064898
0001a0 4f b0 82 be 83 e3 63 be cf ce 25 be ae 87 04 be
       -0.25525138 -0.22254758 -0.16192172 -0.12942383
0001b0 22 10 f9 bd 3b 21 d8 bd 40 db bf bd a0 16 36 3e
       -0.1216128 -0.10553213 -0.093679905 0.17782068
0001c0 07 2a 1e 3e c3 04 19 bd fd d8 0c be 9b 06 45 be
       0.1544572 -0.037358057 -0.1375465 -0.19240801
0001d0 fe 56 2a be 86 3f 24 be 4d 31 29 be 1c 70 41 be
       -0.16634747 -0.16039857 -0.16522713 -0.18890423

fc_2.weight f4 [84, 120]
000000 f5 7b ea bd 1b a9 d3 3c 6d 18 e8 3b 59 05 1e be
       -0.11449424 0.025837472 0.00708299 -0.15431727
000010 49 6b a3 bd 2e ce 3c be 1f bb d2 3d 87 9a 38 3c
       -0.079794474 -0.18438026 0.10289597 0.011267311
000020 dc 29 1d 3e a6 bc 18 3d 1c 09 bc bd fb 67 f2 3c
       0.15348 0.037289284 -0.09181425 0.029590597
000030 f8 7e de bd 18 0c 80 bc 50 eb c1 bc c7 37 48 bd
       -0.10864061 -0.015630767 -0.023671776 -0.04888132
000040 1f 63 56 bd 03 b1 0e bd 6e 69 63 bd cf 37 00 be
       -0.052340623 -0.03483678 -0.055520467 -0.1252129
000050 b7 fc 9a bd 35 8c 0c bd b4 59 81 be 60 3e f9 bd
       -0.07567733 -0.0343134 -0.2526375 -0.121701
000060 09 fe 6d bb a8 e6 40 be 3e 42 23 be f0 c9 52 bd
       -0.0036314747 -0.18837988 -0.15943238 -0.051462114
000070 2f 26 aa bb 66 f0 03 be 11 a1 0b 3c 8b 69 0c bd
       -0.00519254 -0.12884673 0.008522288 -0.03428034
000080 0d 27 08 be 83 f6 94 3c e2 79 fd 3d 78 27 16 3e
       -0.13296147 0.018183952 0.12376763 0.14663494
000090 54 96 0f be 3c 25 ba bc 4e 3d 1b 3e 1f e1 6e be
       -0.1402219 -0.022722833 0.15160105 -0.23328064
0000a0 26 93 0a be c3 92 97 3d 21 4d e7 3c f4 00 86 be
       -0.13532695 0.074010395 0.02823502 -0.26172602
0000b0 02 d1 d2 bd f5 2d 81 3d 29 6f a0 bd 54 f6 13 be
       -0.10293771 0.06307594 -0.07833702 -0.14449435
0000c0 fb 80 2c 3c 83 74 94 be a0 d1 88 bc 30 23 4f bd
       0.010528798 -0.2899514 -0.01670152 -0.050570667
0000d0 11 f2 da bc bb bb 23 be f7 68 5f 3d 7a e8 b1 bc
       -0.026726754 -0.15989582 0.05454346 -0.021717299
0000e0 a9 fd 7d 39 6c d2 ca 3c 99 95 3e be da e0 8e bd
       0.00024222456 0.02475854 -0.18611754 -0.06976481
0000f0 2d b0 35 3e 5c c5 7e be cf 10 3a 3c 7e 36 ac be
       0.17742987 -0.24879974 0.011356547 -0.33635324
000100 24 75 44 bd 85 41 d0 b9 2b 1b 5f be 12 27 21 be
       -0.047963277 -0.00039721667 -0.21787708 -0.1573756
000110 90 91 f1 3b 79 bf 9b bd 86 68 11 be 52 92 23 3c
       0.0073720887 -0.0760488 -0.14200029 0.009983616
000120 3d ca fb 3c e2 16 b2 bd 5c 02 cf bd ce d3 b6 bc
       0.030736083 -0.08695771 -0.10107872 -0.022317793
000130 7d 0b bd 3c c6 44 d3 bd c2 c4 13 be 6b bc f9 bd
       0.023076767 -0.10315852 -0.14430526 -0.12194141
000140 d9 09 5f 3d d2 b5 95 3d 5e cc 21 be a6 7d 20 bd
       0.05445275 0.0731007 -0.15800616 -0.039182328
000150 d8 6c da bd d2 65 16 3e a0 30 e7 bd 65 80 ac be
       -0.106652915 0.14687279 -0.11288571 -0.33691707
000160 42 ef c1 bd 0d 77 2a bc 4b 5b 60 bd 1a 65 40 be
       -0.09469463 -0.0104043605 -0.054774564 -0.18788567
000170 a7 52 38 bd 7d 12 1d be 23 d1 21 be f5 fa fe bd
       -0.0450007 -0.15339084 -0.15802436 -0.1245021
000180 b7 dc dc 3a 83 de 5a 3d b3 26 71 be 99 79 10 bd
       0.0016850446 0.05343486 -0.23549919 -0.035272215
000190 dc 15 4d bd 52 43 21 bb 29 db 75 3e e4 c8 c4 3d
       -0.050069675 -0.0024606776 0.24009384 0.09608629
0001a0 f3 36 76 be a1 b5 4f be 69 8e a1 bd 2c 6e b0 bd
       -0.24044399 -0.2028413 -0.07888491 -0.086147636
0001b0 a8 9c 8a bd d0 ba 02 be e3 98 b6 bd 86 6f bf be
       -0.06768161 -0.12766576 -0.089158796 -0.37389773
0001c0 7f 50 2e 3d 9a 8d c3 bb 8d 6d f5 bd aa a2 f0 bd
       0.042557236 -0.005967808 -0.11983786 -0.11749776
0001d0 01 5d 2e be 1c 05 1b be 5d 2f 96 bd cf 70 0c be
       -0.17027666 -0.15138668 -0.073332526 -0.13714908
0001e0 4d 1c 7f bd af 02 e1 bd b4 34 1f bc 4f 97 3a be
       -0.06228285 -0.1098684 -0.009717155 -0.18221782
0001f0 74 59 ae bd 2a 58 0f be b0 04 7c bd c3 77 99 3d
       -0.085131556 -0.13998476 -0.061527908 0.07493546
000200 6a a1 3a bc 96 81 8d 3c f0 4e 34 be 01 4b 3b be
       -0.011391023 0.017273705 -0.17608237 -0.1829033
000210 f9 ef 0a bd 72 ff bf bd 8b a9 33 bd 76 7d c3 bc
       -0.033920262 -0.09374894 -0.04386286 -0.023863535
000220 8c 15 c4 bd 2a fe 69 bd ba af c5 bc 5b 7f f2 bd
       -0.09574422 -0.057127155 -0.024131645 -0.118406974
000230 de 8a 37 be 8e 32 0c be dc 3b f5 bc d0 29 8b ba
       -0.17924067 -0.1369116 -0.02993577 -0.001061732
000240 32 d1 c3 bc b0 a9 d5 bd 4f bf e5 bd 04 e9 22 be
       -0.023903463 -0.10432756 -0.1121813 -0.15909201
000250 66 e9 76 bd 79 84 9e bd 9c 64 32 3d 23 2e 1d be
       -0.06028118 -0.07740111 0.04355298 -0.15349631
000260 88 a0 6f 3c 57 85 c5 bd ba f5 27 be cd e8 41 be
       0.014625676 -0.09644573 -0.16402331 -0.18936463
000270 ae f6 8d bd 42 ef db bd bf 6c 9c bd 3e 4c 15 be
       -0.06931816 -0.10738994 -0.07637929 -0.14579865
000280 d2 94 cf bd da 71 25 be 6d b7 9b bd 5f 57 7b be
       -0.10135807 -0.16156712 -0.07603345 -0.24545048
000290 c5 54 0e bc 07 cc 33 be a1 1c 19 be 41 de f4 bd
       -0.008687203 -0.17558299 -0.14952327 -0.11956454
0002a0 67 21 2c 3c 53 14 09 bd 7b 52 19 bc 3f 85 88 bd
       0.010506011 -0.03346665 -0.009358044 -0.0666604
0002b0 71 db ec bd a2 42 50 be 2a 4e 32 3b ae 91 28 bd
       -0.115652926 -0.20337918 0.0027207234 -0.041154556
0002c0 ab 02 0f be c0 40 c1 bd ec 16 cd bd 2f 24 ea bd
       -0.13965861 -0.09436178 -0.100141376 -0.11432683
0002d0 91 b7 1f be c1 90 5b be 20 0a b0 bd 00 f0 e5 be
       -0.15597369 -0.21441938 -0.08595681 -0.44909668
0002e0 45 7e b4 bd 61 85 e7 bb 8d 1c 14 bd 42 ca da bc
       -0.088131465 -0.0070654606 -0.03616004 -0.026707772
0002f0 56 87 07 be b2 c4 b9 bd 8a 93 1f be 16 91 39 bd
       -0.1323522 -0.0907072 -0.15583625 -0.04530438
000300 cc 3d f3 bd b7 93 2c be af ed 41 be e8 a5 07 be
       -0.11877021 -0.16853224 -0.18938325 -0.13246882
000310 c1 6b 3d bd f9 c5 83 bd a8 44 58 bd aa af 69 bd
       -0.04624534 -0.06434245 -0.05279985 -0.057052292
000320 87 26 5a be 02 a2 2f be 36 16 eb bd e8 cf 97 3c
       -0.2130376 -0.17151645 -0.11478846 0.018531755
000330 4d 12 1a be c9 04 4b bd 8c 4c 1d be 58 89 a7 be
       -0.15046044 -0.04956511 -0.15361232 -0.32721972
000340 fb 8a 8b be 17 c5 09 be 77 6e d4 bd 2c 72 76 bd
       -0.2725447 -0.1345409 -0.10372632 -0.060167477
000350 17 29 f5 bd 70 b3 80 bd 0c 48 ea bd bd fd 30 bd
       -0.11970728 -0.06284225 -0.11439523 -0.043210734
000360 49 2e e1 bd 5f 2d e5 bd f8 f4 cf bd 2f d8 0a be
       -0.10995156 -0.111902945 -0.10154146 -0.1355903
000370 c4 57 b2 bd f9 7f bc bd 9b ec 6d bd 0f 32 8a bd
       -0.08708146 -0.09204096 -0.058086973 -0.06747829
000380 db c6 fc bc 5e 02 bd bd 0c 5e ea bd fd 0e 1b be
       -0.03085654 -0.09228967 -0.11443719 -0.15142436
000390 85 b6 4b bd 74 47 cd bd ec 79 43 bc 88 ce 57 be
       -0.04973461 -0.10023394 -0.011930924 -0.21074879
0003a0 b5 ae 01 bd 74 06 03 be e1 29 9a bc 12 a4 a4 bd
       -0.031660754 -0.1279543 -0.018818798 -0.080391064
0003b0 0c 25 cd bd a5 da ee bd e6 f6 6b bd 81 d2 8f ba
       -0.10016832 -0.11662797 -0.057608508 -0.0010972769
0003c0 0d 2e aa bd cc ef 7c 3e 27 bf ce bc 89 00 b4 3d
       -0.08309565 0.2470085 -0.025237633 0.087891646
0003d0 39 be 5b 3d 6f 10 27 bf 3a f8 63 bd b9 e0 33 bd
       0.053648207 -0.6525945 -0.05565665 -0.043915484
0003e0 3b a1 0e be 1f 57 a4 bd 00 81 8d 3d 3d 8a 8a 3d
       -0.13928692 -0.080244295 0.069093704 0.06764648
0003f0 bb 7b c9 be 64 c0 24 3b 46 82 28 be 4e 4f 24 be
       -0.3935221 0.0025139088 -0.16455945 -0.16045877

fc_2.bias f4 [84]
000000 fb 0b 13 be e7 16 17 be 9d 7c 93 be 87 22 fc bd
       -0.14360039 -0.1475483 -0.2880601 -0.12311273
000010 be c5 41 be 37 34 66 be 20 55 8f be db db 57 bd
       -0.18923089 -0.22480856 -0.27994633 -0.052699905
000020 98 66 ac be 27 50 82 be 27 27 34 be 40 95 94 be
       -0.33672023 -0.25451776 -0.1759306 -0.2902012
000030 b2 09 9a be 99 07 91 be d9 b9 a5 be 12 26 43 be
       -0.30085522 -0.2832611 -0.32368353 -0.19057491
000040 ab 31 26 be 90 3b 41 be 86 45 8e be 1d ac 9b be
       -0.16229884 -0.18870378 -0.27787417 -0.3040475
000050 4b 68 57 be 84 46 59 be f3 a0 82 be d3 8f 67 be
       -0.21035878 -0.21218306 -0.2551342 -0.22613458
000060 26 fc 16 be f6 57 44 be ba 93 94 be 52 4f fd be
       -0.14744624 -0.1917418 -0.29018956 -0.4947458
000070 aa a6 9d be b2 e2 ab be 3f a8 87 be 5b 72 0d be
       -0.30791217 -0.33571392 -0.2649555 -0.13813154
000080 43 30 94 be 21 27 75 be 43 83 09 be 40 e4 91 be
       -0.2894307 -0.23940708 -0.13428979 -0.28494453
000090 65 c3 9e be 20 99 3d be e6 3f 98 be cd 37 44 be
       -0.3100845 -0.18515444 -0.2973625 -0.19161911
0000a0 33 dc 94 be d9 d9 5e bf 4d 8b 6d be 24 6b 80 be
       -0.2907425 -0.8705116 -0.2319767 -0.25081742
0000b0 d8 26 af be 13 7f 81 be b8 6e ed be b5 06 12 be
       -0.34209323 -0.25292262 -0.46373534 -0.14260371
0000c0 44 44 07 be bc a8 75 bf 4c 76 65 be ea 1a 17 be
       -0.13209635 -0.95960593 -0.22408408 -0.1475636
0000d0 06 30 c0 be 80 7c ab bb 87 cf 24 be 1d 40 b8 be
       -0.3753664 -0.0052333474 -0.1609479 -0.35986415
0000e0 e3 1f c1 be 08 01 fe be e3 7d 0b be e8 bd e6 bd
       -0.3771964 -0.49610162 -0.1362224 -0.112666905
0000f0 fb c4 20 be 75 14 d7 bd cf a7 66 be e6 e5 bd be
       -0.15700142 -0.10501949 -0.22524951 -0.3708946
000100 22 3e 1c be 89 ce 04 be 66 a5 54 be 9c a1 64 be
       -0.15258077 -0.12969412 -0.2076622 -0.22327274
000110 21 f4 09 be 57 ee f4 bd 05 97 13 be 1e f9 1d be
       -0.13472034 -0.11959522 -0.14413078 -0.15427062
000120 96 86 b9 be ee 3f 95 be be 4f 4b be 4d b9 05 be
       -0.36235493 -0.29150337 -0.19854638 -0.13058968
000130 ea 65 a8 be 9e b6 ba be 2b 4b e6 be 8f ce 44 be
       -0.32890254 -0.3646745 -0.44979224 -0.19219421
000140 82 36 31 be f3 02 10 be 67 00 39 be ec 99 70 bd
       -0.1730595 -0.14063625 -0.1806656 -0.05874054

fc_3.weight f4 [7, 84]
000000 02 94 65 bf e0 97 2c bf b8 74 a5 bf ee 0b 40 bf
       -0.89678967 -0.6741924 -1.2926245 -0.75018203
000010 ce 16 30 bf 35 f4 40 bf 55 fb a1 bf d9 14 0b bf
       -0.687848 -0.7537263 -1.2654825 -0.54328686
000020 5d 38 44 bf c6 ad 43 bf e2 ea 26 bf 7c 5f 9b bf
       -0.76648504 -0.7643703 -0.6520215 -1.2138515
000030 e2 3d 9f bf 72 ca 9c bf bd 37 40 bf 29 08 15 bf
       -1.244076 -1.2249281 -0.7508505 -0.58215576
000040 80 2b 53 c0 d3 ca 44 bf a2 c5 4e bf 90 34 e4 be
       -3.29953 -0.76871985 -0.80770314 -0.44571352
000050 45 4f 28 bf 64 a0 8d bf c0 fe a7 bf 36 93 75 bf
       -0.65745956 -1.1064572 -1.3124619 -0.9592775
000060 58 40 2e bf 79 e8 64 bf 45 72 32 bf 4e 09 87 bf
       -0.6806693 -0.89417225 -0.6970561 -1.0549715
000070 a6 88 50 bf 06 1a 81 bf d5 87 78 bf bc 07 49 bf
       -0.8145851 -1.0086067 -0.97082263 -0.78527427
000080 ea ed 20 bf a4 b6 12 bf 78 21 00 bf d2 ec 88 bf
       -0.6286303 -0.5730994 -0.5005107 -1.0697272
000090 24 3c 73 bf 8a a2 40 bf bc 88 4a bf c5 7f 4d bf
       -0.9501364 -0.75248015 -0.7911489 -0.80273086
0000a0 0b 9b 74 bf 93 c2 01 c0 a8 ec 30 bf f4 a8 4a bf
       -0.95549077 -2.0275009 -0.6911111 -0.7916405
0000b0 73 ac 60 bf 0a a5 45 bf 0a 65 99 bf 89 84 43 bf
       -0.87763137 -0.77204955 -1.198396 -0.7637411
0000c0 ad ef d3 be e7 72 fd bf 45 4e 4b bf e9 f1 03 bf
       -0.41393796 -1.980069 -0.79416305 -0.51541
0000d0 ae 1d 67 bf a6 38 78 be ed 85 7d bf 83 6f 38 bf
       -0.9027966 -0.2424036 -0.9903248 -0.72045153
0000e0 db 47 85 bf 06 ce 8e bf 5c a9 94 bf 29 88 fa be
       -1.0412554 -1.1156623 -1.1614184 -0.48932007
0000f0 7f 7b 20 bf 30 11 48 bf 23 aa 33 bf 81 d9 5c bf
       -0.6268844 -0.78151226 -0.70181483 -0.86269385
000100 a4 e1 23 bf 41 08 01 bf cc 48 3d bf 6b a6 37 bf
       -0.64016175 -0.5040322 -0.73939204 -0.7173831
000110 3a 9b 22 bf 7a 86 fe be 4e 80 60 bf 8f 05 47 bf
       -0.63518107 -0.49711972 -0.8769578 -0.77742857
000120 ea 9f 6b bf 77 74 85 bf b2 85 71 bf 9d 67 24 bf
       -0.92040884 -1.0426167 -0.9434463 -0.642206
000130 b7 53 18 bf 4b 7a 5d bf 32 74 70 bf b1 ea 0b bf
       -0.5950274 -0.8651473 -0.939273 -0.54654986
000140 a0 5d 17 bf 5f 32 09 bf e5 98 1f bf ed a1 0c bf
       -0.59127235 -0.53592485 -0.62342674 -0.5493458
000150 62 ca 55 3f 56 f4 71 3f 7c b9 2d 3f 48 87 3a 3f
       0.83511937 0.9451345 0.6786115 0.7286267
000160 9b 40 83 3f 7e eb 45 3f ed 79 21 3f b7 d2 98 3f
       1.0254091 0.7731246 0.6307667 1.1939305
000170 43 29 07 3f 6d d6 0e 3f a0 0e 80 3f ed 18 3f 3f
       0.52797335 0.5579594 1.0004463 0.7464741
000180 bc 6d 0f 3f 65 e4 05 3e 7b 1f 12 3f 25 12 88 3f
       0.56026816 0.13075407 0.57079285 1.0630537
000190 e3 b8 8d bf 5b 52 8c 3f f6 9c 51 3f 0c 07 57 3f
       -1.1072048 1.0962633 0.8188013 0.8399513
0001a0 34 a3 7a 3f 08 24 5e 3f 83 de 39 3f 31 89 51 3f
       0.9790528 0.8677373 0.7260515 0.8184996
0001b0 f4 64 3f 3f 2a 1e 32 3f c4 8c 6e 3f 9a e2 10 3f
       0.7476342 0.69577277 0.9318354 0.56595767
0001c0 69 79 16 3f 8e a2 23 3f 8e 9b 4f 3f 3b 1a 87 3f
       0.5877901 0.63919914 0.8109673 1.055488
0001d0 91 95 4c 3f ff bf 20 3f 07 48 7d 3f ad 96 2f 3f
       0.7991572 0.6279296 0.9893803 0.6858929
0001e0 d5 ab a6 3e 26 ae 90 3f 39 05 20 3f cb d1 19 3f
       0.32552972 1.1303146 0.6250797 0.60085744
0001f0 7c 19 51 3f 40 fc 81 bf 86 cf 81 3f 3e b6 3e 3f
       0.8167951 -1.0155106 1.0141456 0.7449683
000200 8d 22 a8 3e 39 1f 3e 3f fe 31 34 3f 94 70 9f 3f
       0.3283886 0.7426639 0.7038878 1.2456231
000210 1a 24 96 3f e2 56 0a 3f a3 6a 89 3f 88 1f 88 3f
       1.1729767 0.5403882 1.0735668 1.0634623
000220 b7 13 03 3f f0 7f d6 bb 15 96 f4 3e 22 5a 30 3f
       0.5120196 -0.006546013 0.47770754 0.6888753
000230 79 1b 26 3f 18 bf 1e 3f 93 a3 39 3f c4 ad 91 3f
       0.6488567 0.62010336 0.7251522 1.1381154
000240 94 6f 88 3f e2 23 40 3f d2 05 76 3f 0f 98 2f 3f
       1.0659051 0.7505475 0.9610263 0.685914
000250 65 eb 89 3f 48 cb 6d 3f f8 d2 4f 3f 45 30 81 3f
       1.0774962 0.9288831 0.8118129 1.0092856
000260 89 7f 91 3f b5 28 9f 3f 35 0e 4e 3f 2c c1 88 3f
       1.1367046 1.2434298 0.8049043 1.0683951
000270 9f 2d 0c 3f 7a 39 3e 3f ff cd b5 3e 8b e1 33 3f
       0.5475711 0.7430645 0.35508725 0.70266026
000280 c5 b0 55 3f e1 e6 27 3f 34 d0 11 3f 70 af 53 3f
       0.83472854 0.6558667 0.5695832 0.8268957
000290 cd 7f 7a 3f fc 86 6e 3f b4 95 80 3f d4 72 a8 3f
       0.9785126 0.9317472 1.0045686 1.3160043
0002a0 20 bb 5f 3e a9 5e f9 3e c0 fd 03 be be 98 73 3f
       0.21848726 0.48705032 -0.12889767 0.9515494
0002b0 89 1d c0 3e aa b4 71 3f e8 4b 31 3e d3 12 11 3f
       0.37522534 0.94416296 0.17314112 0.5666935
0002c0 00 e3 a7 3f 27 e9 92 3f ae 0f 93 3e 0c 89 29 3e
       1.311615 1.1477402 0.287229 0.16556185
0002d0 91 9a e9 3d 55 eb 90 3f 04 37 4f 3f cd 11 5a 3e
       0.11406434 1.1321818 0.8094332 0.21295853
0002e0 6c ff b6 bf 6e a9 1b 3f e8 30 a0 3e 33 10 c7 3e
       -1.4296699 0.60805404 0.31287313 0.38879547
0002f0 21 a8 a6 3e d8 06 4c 3e 78 04 12 be cb 70 fb 3e
       0.32550147 0.19924486 -0.14259517 0.49109492
000300 92 f8 05 3f 5c 18 7e 3e 68 9d d5 3e 6a fd 22 3f
       0.52332413 0.2481398 0.41721654 0.6366793
000310 54 8b 88 3f 4b 1e 63 3d b3 84 3e 3f 0a 39 2f 3f
       1.066752 0.05544881 0.7442123 0.6844641
000320 bf 3a f0 bc 78 65 91 3f 27 9d c8 3e d4 7f 1d 3f
       -0.029324887 1.1359091 0.39182398 0.61523175
000330 0c a0 b7 bd a1 3e e5 3e 39 fa 96 3f 82 55 8a 3f
       -0.089660734 0.44774345 1.1795112 1.0807345
000340 96 40 e4 3e dd d0 17 c0 96 e5 8f 3e 4d 3a 7a 3e
       0.44580525 -2.372123 0.28104848 0.24436302
000350 d1 6a d1 3f 79 41 ed 3e 54 d0 8d 3f 60 40 a4 3e
       1.6360723 0.46339014 1.1079202 0.32080364
000360 48 09 80 3e e7 ae 66 bf fb d0 80 3e a4 47 93 3e
       0.2500708 -0.9011063 0.2515944 0.28765595
000370 0d ad 73 3f ee 0c 9f 3e cf a0 cc 3e f4 51 19 3f
       0.9518593 0.31064552 0.39966437 0.59890676
000380 e6 b3 fd bd f6 72 88 3f 56 33 0c 3e f3 cd 9f 3e
       -0.123878285 1.0660083 0.13691458 0.31211814
000390 15 c8 cf 3e 22 81 a4 3f 7f f3 01 3f e6 22 5e 3f
       0.40582338 1.2851908 0.5076217 0.86772
0003a0 a6 1c 01 3f 77 8d 39 3f fd 55 5f 3f fa aa f6 3e
       0.5043434 0.72481483 0.8724058 0.4817732
0003b0 d3 1f 8b 3e 66 24 27 3e 25 50 88 3f f9 36 3c 3f
       0.27172717 0.16322479 1.0649458 0.7352138
0003c0 99 2e 70 3f 7a 52 9a 3e 64 30 db 3f 12 52 81 3e
       0.938211 0.3014105 1.7124143 0.25257927
0003d0 33 3e 26 3f c7 5a 14 3f 31 78 3f 3f a3 38 3c 3f
       0.6493866 0.57951015 0.7479277 0.7352392
0003e0 dc ca 1e 3f 45 79 1d 3f 2e eb de 3e 4f ef 9f 3e
       0.6202829 0.6151317 0.43538803 0.31237265
0003f0 eb c8 5c 3e 24 d0 e3 3d 88 c8 f7 3d af 06 2a bd
       0.21561019 0.11123684 0.12098795 -0.04151028

fc_3.bias f4 [7]
000000 64 1c fd 40 e8 9d b7 c0 66 27 20 c0 50 35 15 c0
       7.9097157 -5.7380257 -2.5024047 -2.331379
000010 73 f2 51 3f f5 79 c3 be e4 5d 0a 40
       0.82010573 -0.38178983 2.1619806
